cry_detection_model.pth (torch, 21696 bytes, 5 tensors)

fc1.weight f4 [64, 40]
0.12720187 0.14869799 -0.16239691 0.07351915 -0.15647753 0.12930664 -0.047936495 -0.13464418
-0.12815982 -0.08061501 0.12102872 -0.14625594 0.022399832 0.16352616 0.04402757 -0.008092042
0.14231168 0.042759083 -0.13677128 -0.051112365 -0.12661059 0.09798548 -0.112563334 0.14753328
-0.09332962 -0.020443976 0.029624213 0.031639054 -0.1223084 0.12551682 -0.15922695 -0.060699925
0.086098686 0.054372534 -0.037375994 0.11322173 -0.117109954 0.036721922 0.1217095 -0.03426336
0.09445791 -0.002485305 0.050600126 0.13917585 0.06067325 0.034835666 0.10995264 0.08787909
-0.048830204 -0.026968658 -0.009134144 -0.06515433 0.08288802 0.017086506 -0.13102789 -0.0032482743
0.097089246 0.12000503 -0.07246681 -0.14669488 -0.11936839 -0.017738953 0.10417162 0.0064464062
0.04787363 -0.07298065 0.09897773 0.11724858 0.13139467 -0.12579925 -0.044475637 -0.10866286
0.048568442 0.12340836 0.041554272 0.0082363635 -0.06711951 0.10057472 -0.13845435 -0.116604686
-0.073483765 -0.13935941 0.06752177 -0.10935349 0.16902426 -0.05735328 0.10282724 -0.15075015
-0.09712639 0.035913654 -0.04418678 -0.13864323 0.0694605 -0.12690684 -0.11996876 -0.10700511
0.102530114 0.12906338 0.06856152 -0.09274282 -0.13535374 0.11394549 0.10104889 -0.1741743
0.020818517 0.018459022 0.11687764 0.03638217 0.07351782 0.15218899 -0.12574966 0.0718814
-0.029003067 0.02221918 -0.04551391 0.075057656 0.1901388 -0.0763943 -0.06651006 0.05636144
0.019264592 -0.1638438 -0.08951253 0.023351321 0.07369281 0.093755886 -0.05140679 -0.03601044
0.03998547 -0.091869086 0.013127479 -0.03890493 -0.07146822 0.057923447 0.07067553 -0.13840407
0.0026940505 0.13107108 0.052725542 -0.056453142 -0.022855131 -0.15836519 0.027841737 0.1092654
0.048191134 -0.03744929 -0.009786559 0.0150792925 -0.044157036 0.011479871 0.064225145 -0.08939054
-0.062012255 -0.15708601 -0.015453038 -0.059169076 -0.08141994 -0.057250936 0.057330064 0.1527542
0.14804177 0.025647743 -0.13729419 0.019029856 -0.09662639 0.018788006 0.049654793 0.150276
0.011766547 0.11232572 -0.0009908314 0.15582617 -0.10766941 -0.024191685 0.07580171 0.12116922
0.02812026 -0.09087147 -0.10320375 -0.12393746 0.08967403 -0.06263532 -0.054803938 -0.1498726
0.03721893 0.022570765 0.15225224 -0.08009536 -0.027488342 -0.09133532 -0.12514545 -0.08230997
-0.035469536 -0.04227697 -0.068180315 -0.12387912 -0.099755056 0.03475701 -0.14455393 0.110462315
0.08589819 0.12372303 0.21594155 0.07651839 -0.16519286 0.0018506582 -0.15576535 0.10831281
-0.04166637 0.17922471 0.08125368 -0.1355353 0.0231743 -0.05740278 0.068136595 0.080854036
0.060889084 -0.17466314 -0.08180768 -0.07428835 -0.04747449 -0.2128591 0.004553031 -0.25156468
0.07766859 -0.033540394 -0.06894794 -0.028520092 -0.15614569 -0.05529277 -0.0059853536 -0.14647089
0.068031855 -0.17108594 -0.039041743 0.15246765 -0.20275922 0.08596923 -0.01717378 -0.11567715
0.11120249 -0.03586752 0.073328435 -0.0066120476 0.034212798 0.008664012 -0.12672518 0.0822552
0.011640221 -0.14020541 -0.10832189 0.14415263 -0.1545283 0.01741147 0.044474766 -0.102835484
00000000: 3541 023e 4944 183e 604b 26be 3591 963d
00000010: a53b 20be f668 043e 0f59 44bd 2ae0 09be
00000020: 543c 03be 7b19 a5bd e8dd f73d 1ec4 15be
00000030: da7f b73c 6773 273e 4156 343d 7c94 04bc
00000040: 27ba 113e 2624 2f3d c50d 0cbe 335b 51bd
00000050: 35a6 01be 9dac c83d 9b87 e6bd f712 173e
00000060: 9a23 bfbd 207a a7bc 7aae f23c f497 013d
00000070: d47c fabd 7b87 003e 640c 23be 7ca0 78bd
00000080: 8254 b03d bcb5 5e3d 9217 19bd cbe0 e73d
00000090: 58d7 efbd ba69 163d d542 f93d bd57 0cbd
000000a0: 2673 c13d 80e0 22bb 1442 4f3d 1d84 0e3e
000000b0: 8484 783d d8af 0e3d da2e e13d f4f9 b33d
000000c0: 2e02 48bd 60ed dcbc 60a7 15bc a26f 85bd
000000d0: 32c1 a93d 00f9 8b3c 2d2c 06be 00e1 54bb
000000e0: bad6 c63d 32c5 f53d 7b69 94bd 2f37 16be
000000f0: 6a77 f4bd 4851 91bc ee57 d53d 603c d33b
00000100: 2417 443d e176 95bd d6b4 ca3d 0620 f03d
00000110: 538c 063e 85d1 00be 162c 36bd a28a debd
00000120: b4ef 463d 86bd fc3d d034 2a3d d0f1 063c
00000130: f475 89bd 1efa cd3d fac6 0dbe 70ce eebd
00000140: a87e 96bd 3cb4 0ebe db48 8a3d b9f4 dfbd
00000150: b214 2d3e 46eb 6abd 1797 d23d 3f5e 1abe
00000160: 33ea c6bd 321a 133d 32fd 34bd 7ef8 0dbe
00000170: 4e41 8e3d def3 01be 2eb2 f5bd 7f25 dbbd
00000180: 4ffb d13d 3129 043e fb69 8c3d f3ef bdbd
00000190: 2c9a 0abe 415c e93d b8f2 ce3d bf5a 32be
000001a0: 988b aa3c 6037 973c 8b5d ef3d 7805 153d
000001b0: 8390 963d 6ed7 1b3e 85c4 00be 8e36 933d
000001c0: d797 edbc ff04 b63c cb6c 3abd d4b7 993d
000001d0: bfb3 423e 9d74 9cbd 6d36 88bd 41db 663d
000001e0: c7d0 9d3c abc6 27be 5852 b7bd 454b bf3c
000001f0: 42ec 963d 1603 c03d ed8f 52bd af7f 13bd
00000200: cec7 233d dc25 bcbd a314 573c c75a 1fbd
00000210: ee5d 92bd 2341 6d3d 55be 903d ccb9 0dbe
00000220: ab8e 303b 7f37 063e bdf6 573d 693b 67bd
00000230: af3a bbbc 7c2a 22be 5b14 e43c 8ac6 df3d
00000240: 1164 453d 6d64 19bd ce57 20bc 230f 773c
00000250: 02de 34bd 1216 3c3c 7988 833d 6312 b7bd
00000260: 9000 7ebd 28db 20be bd2e 7dbc 465b 72bd
00000270: 7fbf a6bd f57f 6abd eed2 6a3d 996b 1c3e
00000280: 4398 173e 371b d23c d996 0cbe 80e4 9b3c
00000290: 0fe4 c5bd 4ee9 993c d362 4b3d f4e1 193e
000002a0: 7ac8 403c 070b e63d c9de 81ba e590 1f3e
000002b0: c881 dcbd a42d c6bc ed3d 9b3d 9127 f83d
000002c0: 765c e63c d21a babd 7d5c d3bd ecd2 fdbd
000002d0: 05a7 b73d f246 80bd 187a 60bd 3478 19be
000002e0: e072 183d 53e6 b83c 03e8 1b3e 0909 a4bd
000002f0: 3b2f e1bc 030e bbbd 2126 00be 2192 a8bd
00000300: 8148 11bd 9e2a 2dbd 1fa2 8bbd 56b4 fdbd
00000310: 614c ccbd 5e5d 0e3d f205 14be 113a e23d
00000320: 64eb af3d 8062 fd3d c81f 5d3e acb5 9c3d
00000330: 5128 29be c991 f23a f480 1fbe 1bd3 dd3d
00000340: 5baa 2abd af86 373e 5468 a63d c4c9 0abe
00000350: 08d8 bd3c 2d1f 6bbd 338b 8b3d cd96 a53d
00000360: d566 793d e5da 32be c98a a7bd 7e24 98bd
00000370: 9c74 42bd bcf7 59be 9831 953b 16cd 80be
00000380: b610 9f3d a761 09bd 9434 8dbd f8a2 e9bc
00000390: a8e4 1fbe ac7a 62bd c920 c4bb 77fc 15be
000003a0: 4954 8b3d 2731 2fbe 3cea 1fbd 7b20 1c3e
000003b0: 1da0 4fbe a310 b03d 07b0 8cbc 24e8 ecbd
000003c0: 22be e33d d2e9 12bd 382d 963d e0a9 d8bb
000003d0: b822 0c3d 80f3 0d3c 3fc4 01be 6a75 a83d
000003e0: a0b6 3e3c 0292 0fbe ded7 ddbd bf9c 133e
000003f0: ab3c 1ebe 80a2 8e3c 2c2b 363d 699b d2bd

fc1.bias f4 [64]
-0.0044372785 0.121313706 0.004217857 -7.7083125e-05 0.07104341 -0.05597295 0.11373781 0.02667807
-0.10710107 0.1269032 -0.033163905 -0.059101 0.010753729 0.045530498 -0.083096825 -0.07875918
0.07688255 0.14407115 -0.028183775 0.037360474 0.08403869 -0.16656128 -0.031701546 -0.05472413
0.09423939 -0.049715552 -0.16262923 0.04985003 -0.049725886 -0.0029285855 -0.058483172 -0.14767024
-0.00057815656 0.1309548 0.14784877 -0.047804493 0.056699518 0.16486102 0.14326182 0.00027400316
0.15581559 -0.03146199 0.028218118 0.017161578 0.16229793 -0.13641717 -0.08606846 -0.15291078
0.107753515 0.095031776 0.081626095 0.011758955 0.0776555 -0.14900367 0.16081476 -0.11994366
-0.0677713 0.03893912 0.015060608 -0.07871404 0.05853882 0.06272189 0.04408501 -0.06444727
00000000: 9766 91bb 5273 f83d f335 8a3b b0a7 a1b8
00000010: 357f 913d e443 65bd 5eef e83d f88b da3c
00000020: ce57 dbbd eaf2 013e e0d6 07bd e413 72bd
00000030: 6930 303c 307e 3a3d ab2e aabd 7e4c a1bd
00000040: 9974 9d3d 6387 133e a9e1 e6bc 4c07 193d
00000050: 7a1c ac3d 0a8f 2abe 7bd9 01bd 6926 60bd
00000060: 9500 c13d 89a2 4bbd 4788 26be 8c2f 4c3d
00000070: 5fad 4bbd 83ed 3fbb 0d8c 6fbd de36 17be
00000080: 6e8f 17ba 0419 063e ab65 173e a5ce 43bd
00000090: c13d 683d 54d1 283e 3ab3 123e 15a8 8f39
000000a0: 1f8e 1f3e 4ade 00bd af29 e73c 7096 8c3c
000000b0: 6e31 263e f1b0 0bbe a944 b0bd a594 1cbe
000000c0: e0ad dc3d 05a0 c23d 952b a73d a2a8 403c
000000d0: d909 9f3d 6b94 18be a0ac 243e 06a5 f5bd
000000e0: aecb 8abd a07e 1f3d c5c0 763c d434 a1bd
000000f0: 67c6 6f3d 5674 803d 7c92 343d eefc 83bd

fc2.weight f4 [32, 64]
0.041849207 -0.013710752 0.083978795 0.050649673 0.04463736 0.0059411987 -0.10811998 -0.10197614
0.1787227 -0.008742799 -0.016173549 -0.025320675 -0.025203109 -0.0373618 0.1968602 -0.12763998
-0.09311602 0.16387473 -0.04437993 -0.03657618 0.09845892 0.057456177 -0.07418814 -0.10081879
-0.045737818 0.021437345 0.18977013 -0.018761784 -0.040898737 0.052787878 0.009699095 -0.022197738
-0.012287259 0.011070338 -0.11512937 -0.023561431 0.06067598 0.15212375 -0.121810555 -0.018039359
0.09696036 0.12616484 0.051438555 -0.034633264 0.097651884 -0.09841726 -0.03523145 0.030153107
0.07375176 0.033400804 -0.023150707 0.068797 0.1133717 -0.09151946 -0.0208977 -0.13476008
0.046907697 0.031652495 0.044223327 -0.09059725 -0.030534748 -0.029740738 -0.0066580814 -0.07163585
0.1022528 0.030739754 -0.09014563 0.041262835 -0.034919366 -0.02764248 -0.06687562 -0.055093892
-0.11909808 0.06163925 -0.06745969 0.03612041 -0.05600226 -0.02108924 -0.13366 0.11228067
0.075486116 -0.062905416 -0.091604084 0.024140418 -0.13525677 0.03832585 0.10359973 -0.122048795
0.08170423 -0.0067417305 0.11051339 -0.09685549 -0.12551835 0.021853564 -0.0282002 -0.0039100647
-0.12971447 0.09935955 0.05245696 -0.13550687 0.057596143 0.07673593 -0.12814003 0.09863859
0.06659216 0.123986326 0.085284084 -0.10275321 0.05308262 -0.017913405 -0.006733039 -0.087900065
-0.09047188 0.065362066 0.101543844 -0.12969147 -0.045939896 0.035563305 -0.122980095 0.026141612
0.07846165 0.08428407 0.08420781 -0.037570212 0.10165484 0.0045516817 -0.020128563 -0.060835585
-0.08636318 -0.0001655072 -0.07832342 -0.03311615 -0.023526117 -0.16725506 0.07725595 -0.055650253
0.1265355 0.03395196 0.100003995 -0.033004854 -0.107197635 -0.06901094 0.040183548 0.04238208
-0.0749637 0.074645095 0.004564765 -0.077047676 -0.0044658054 0.13270961 0.043194015 0.05606837
-0.07794177 -0.02516655 0.054998014 -0.11454092 0.03715416 -0.07326107 0.07833059 -0.08611494
-0.12474023 0.09365646 0.015329629 -0.03264498 -0.17028275 0.099352375 0.101582214 -0.030068152
0.03906543 -0.06103914 -0.051489238 -0.041896924 0.11692376 -0.08025159 -0.12297886 -0.109190136
0.06566471 -0.047326013 -0.053635433 -0.0028871824 -0.08446129 0.01695685 -0.01208877 -0.0804946
0.08085361 -0.061813876 -0.010754445 -0.043736354 -0.06840797 0.0054855812 -0.13505313 0.029302934
-0.058630906 0.10155676 -0.10400575 -0.054849956 0.03751289 0.0019922112 -0.06567392 0.09045672
0.07648608 -0.04005011 -0.123542026 0.13407779 0.12511744 0.10736139 -0.036166612 0.08232349
-0.08416116 -0.034812566 0.0146775665 -0.095927104 -0.05075977 0.110433 -0.044913482 -0.07587803
0.0027722965 -0.13492955 0.07689206 0.018030077 -0.033853535 -0.06505847 -0.04055833 -0.09903926
0.13408554 -0.06371484 0.0615464 -0.01747358 -0.16480966 -0.0016596874 -0.015260764 -0.1289133
0.12911212 -0.10665439 -0.0105484845 -0.02506876 0.026025405 -0.043903522 -0.08965311 -0.0129821235
0.018362759 0.03270249 -0.02777248 -0.07257245 0.010418739 0.12256506 0.08023228 0.009708344
0.14490087 0.035602555 -0.00553208 0.0039812303 -0.16260056 -0.00019445317 -0.024311356 0.08539445
00000000: 136a 2b3d 10a3 60bc 13fd ab3d 0876 4f3d
00000010: aad5 363d 63ae c23b 026e ddbd ded8 d0bd
00000020: 1503 373e f53d 0fbc 647e 84bc 4e6d cfbc
00000030: c076 cebc b008 19bd b895 493e 0eb4 02be
00000040: 9db3 bebd c7ce 273e bbc7 35bd e8d0 15bd
00000050: d5a4 c93d 2b57 6b3d f4ef 97bd 157a cebd
00000060: 9457 3bbd 5f9d af3c 1a53 423e 50b2 99bc
00000070: 6f85 27bd 1a38 583d f4e8 1e3c 08d8 b5bc
00000080: 8050 49bc 5d60 353c f2c8 ebbd e703 c1bc
00000090: 6087 783d 54c6 1b3e d077 f9bd 47c7 93bc
000000a0: 2793 c63d 5b31 013e 3cb1 523d 9cdb 0dbd
000000b0: b6fd c73d fd8e c9bd da4e 10bd a603 f73c
000000c0: 2a0b 973d 48cf 083d 8da6 bdbc 71e5 8c3d
000000d0: 6c2f e83d 8e6e bbbd a731 abbc 8cfe 09be
000000e0: 4922 403d 0ca6 013d 8523 353d 0d8b b9bd
000000f0: 0224 fabc d9a2 f3bc 092c dabb d1b5 92bd
00000100: ea69 d13d f0d1 fb3c 469e b8bd 3803 293d
00000110: 9c07 0fbd 7b72 e2bc 16f6 88bd 22aa 61bd
00000120: b2e9 f3bd 7079 7c3d 4e28 8abd fff2 133d
00000130: a062 65bd 58c3 acbc 2bde 08be 68f3 e53d
00000140: 7798 9a3d 8ed4 80bd ec9a bbbd 20c2 c53c
00000150: c080 0abe 91fb 1c3d 182c d43d b8f4 f9bd
00000160: 8c54 a73d bce9 dcbb d854 e23d 2c5c c6bd
00000170: e287 00be 3f06 b33c 1b04 e7bc 0020 80bb
00000180: dfd3 04be 057d cb3d 1cdd 563d 50c2 0abe
00000190: efe9 6b3d ba27 9d3d 2437 03be 0703 ca3d
000001a0: 7861 883d 8bec fd3d 6ca9 ae3d 4670 d2bd
000001b0: 296d 593d 22bf 92bc d3a0 dcbb f304 b4bd
000001c0: 5249 b9bd 8cdc 853d 38f6 cf3d d7cd 04be
000001d0: 792b 3cbd d4aa 113d fddc fbbd ef26 d63c
000001e0: 80b0 a03d 209d ac3d 2575 ac3d 39e3 19bd
000001f0: 6a30 d03d 4626 953b a8e4 a4bc bc2e 79bd
00000200: 2edf b0bd 008c 2db9 0768 a0bd cda4 07bd
00000210: d8b9 c0bc e944 2bbe 5e38 9e3d 85f1 63bd
00000220: 8692 013e 3611 0b3d e5ce cc3d 1930 07bd
00000230: 6f8a dbbd 9c55 8dbd 8197 243d d598 2d3d
00000240: 9186 99bd 87df 983d 0694 953b 2ccb 9dbd
00000250: e455 92bb 07e5 073e 35ec 303d f2a7 653d
00000260: ef9f 9fbd 152a cebc 9945 613d 6e94 eabd
00000270: f62e 183d e609 96bd ca6b a03d 085d b0bd
00000280: ce77 ffbd f5ce bf3d 2029 7b3c beb6 05bd
00000290: 9a5e 2ebe 4279 cb3d 560a d03d 7c51 f6bc
000002a0: 1303 203d 2d04 7abd 61e6 52bd 1c9c 2bbd
000002b0: b975 ef3d f25a a4bd 57dc fbbd 149f dfbd
000002c0: 387b 863d ecd8 41bd d4b0 5bbd e236 3dbb
000002d0: 0afa acbd 18e9 8a3c fa0f 46bc 5ada a4bd
000002e0: 9496 a53d 8c30 7dbd 6933 30bc e424 33bd
000002f0: 7a19 8cbd 64c0 b33b 5e4b 0abe b50c f03c
00000300: f626 70bd fefc cf3d f700 d5bd 59aa 60bd
00000310: 1ea7 193d c28f 023b 0c80 86bd 5f41 b93d
00000320: bca4 9c3d 960b 24bd 9a03 fdbd b04b 093e
00000330: c91e 003e 4ae0 db3d 7123 14bd 3899 a83d
00000340: b05c acbd 9f97 0ebd 2d7a 703c 6e75 c4bd
00000350: 7ae9 4fbd b22a e23d 33f7 37bd f165 9bbd
00000360: 6baf 353b f92a 0abe 9679 9d3d d0b3 933c
00000370: 01aa 0abd 603d 85bd 7e20 26bd 18d5 cabd
00000380: b84d 093e ed7c 82bd 1418 7c3d c124 8fbc
00000390: ddc3 28be de89 d9ba 4908 7abc d901 04be
000003a0: f835 043e 9e6d dabd 8dd3 2cbc 005d cdbc
000003b0: 3b33 d53c 2ed4 33bd 0d9c b7bd f9b2 54bc
000003c0: 7f6d 963c 0cf3 053d 1d83 e3bc dda0 94bd
000003d0: 5cb3 2a3c 6403 fb3d d250 a43d bf0f 1f3c
000003e0: e560 143e fcd3 113d 7346 b5bb fb74 823b
000003f0: c380 26be 20e6 4bb9 9c28 c7bc 49e3 ae3d

fc2.bias f4 [32]
-0.048509676 0.066435106 -0.08676034 -0.1177597 0.045045197 0.027239492 -0.060371377 -0.12983125
-0.040403225 -0.031046322 0.044303644 -0.08310333 -0.13832662 0.04097207 0.09875526 -0.0064373408
0.08921762 -0.097858556 0.03588252 -0.095813125 -0.009519967 -0.06712705 -0.011520565 0.014481414
-0.10798669 0.106490806 -0.020248443 -0.13334158 -0.023722798 0.083836086 0.05990599 -0.07880034
00000000: 15b2 46bd 210f 883d 68af b1bd ff2b f1bd
00000010: 5081 383d 5b25 df3c fa47 77bd 7cf2 04be
00000020: da7d 25bd db54 febc bd77 353d 1432 aabd
00000030: 7ea5 0dbe 54d2 273d 3340 ca3d 54f0 d2bb
00000040: bab7 b63d 116a c8bd 8df9 123d ac39 c4bd
00000050: a3f9 1bbc e879 89bd c0c0 3cbc 7443 6d3c
00000060: 2028 ddbd da17 da3d 10e0 a5bc b28a 08be
00000070: 5056 c2bc 41b2 ab3d fc5f 753d 1362 a1bd

fc3.weight f4 [1, 32]
-0.031733558 0.017743077 -0.15389001 -0.08286715 -0.100482434 -0.07062871 -0.16216053 -0.14691854
0.1581624 -0.103135064 -0.012882314 -0.06125675 -0.1126957 -0.15183596 0.11308344 -0.121976554
0.047915243 -0.15475914 0.14954126 -0.09477448 -0.1924248 -0.1402985 0.042783108 0.026716921
0.06719178 -0.1893971 -0.003943667 -0.040909898 -0.118487306 0.24168627 -0.02416861 -0.21422061
00000000: 0cfb 01bd ee59 913c 5895 1dbe 41b6 a9bd
00000010: bcc9 cdbd c9a5 90bd 690d 26be d071 16be
00000020: 53f5 213e 7a38 d3bd 5710 53bc 5ce8 7abd
00000030: 01cd e6bd e37a 1bbe 4a98 e73d d8ce f9bd
00000040: c642 443d 2e79 1ebe 5821 193e 1f19 c2bd
00000050: 020b 45be 69aa 0fbe 573d 2f3d 72dd da3c
00000060: d89b 893d 50f1 41be e039 81bb 2391 27bd
00000070: 79a9 f2bd 9b7c 773e 40fd c5bc a65c 5bbe
